paf_resnet.pth (torch, 985397 bytes, 38 tensors)

prep.0.weight f4 [64, 2, 15]
00000000: a222 a9bc 4b07 11be 704a d73d 0359 1cbe
00000010: 2e59 86bd 602d 823d 7cee 84bc 7e5e df3d
00000020: e0b4 fa3d 1335 6cbd 7a93 993d 493e 3e3e
00000030: d796 83bd 3567 0cbe a849 00be 2a4d e5bc
00000040: cc60 15bd 3b0a c6bd b583 13be ebc2 9bbd
00000050: 2440 07be 75f8 4abd b15b bd3a c78d 4e3e
00000060: 08ae 273e 7d3f e83d c177 cd3d 09e6 d2bc
00000070: 21a7 c2bd 8770 893d 312c 9f3d e04c 203d
00000080: 6b8c 2c3e 26d5 69bc e2a2 02be f082 00be
00000090: 482d 45bb 4b5b 9e3d 5309 2e3d 324a 573d
000000a0: 0a9c bd3d cb1c e9bd a806 05be d661 c7bc
000000b0: 07d8 04be c624 09be 376d fdbd 311f af3b
000000c0: d1a2 a9bd b50d 1abd 6bc1 5cbd bac8 143e
000000d0: fcdc 8fbc 8333 483d 2a6e 903d 7073 9d3d
000000e0: a57a 74bd 21ef 00be b249 363e 09c6 cabd
000000f0: 1bd9 d8bd 5b5e d4bd 719d 0d3e cd8a 35be
00000100: 2288 e1bc 2e7a 33be c784 34bd 93ab ac3d
00000110: 43aa 52bc c110 253c 5b8d 12be a775 5b3d
00000120: 2619 203e aa0d 133d 7da2 dabd c9ac 13be
00000130: 9ca8 e1bc 1f05 123d c34e d73d 6ed7 f83d
00000140: ca3a 8e3d fc78 b4bc a376 75bd e7a7 08bd
00000150: cd25 d9bc da53 ba3d e2bf 163e 3160 26be
00000160: 99a3 6fbc 823d 993d 8a59 2a3e 7fd6 433d
00000170: e117 ae3c 718a 373e 2864 5b3d 62bf 243e
00000180: e345 2dbe f93b ce3b 13e6 bd3d 2b4f 10be
00000190: 23e5 95bd 2bb9 dcbd 6dc1 423e e754 f03d
000001a0: 4fcc 6ebd abfd 2c3e 3834 033e bfb1 973c
000001b0: 8795 0bbe c8ee 8fbd c6d4 b0bc e6f7 b3bd
000001c0: fd7c 95bd 8ee2 09bc a47c 17be 4d87 3b3e
000001d0: b0ab 14be f4e9 1dbc efa5 1dbe 28b3 03be
000001e0: adc1 aa3d 4662 a23d 5d64 15be 1d8c 48bd
000001f0: 4737 3a3e d415 f1bc 930a d1bd 3d69 d7bd
00000200: 58a1 183e 3e9b 02bd 271c 69bd 216c 9ebd
00000210: fb0b 633b 02aa a9bd 8242 90bd ea99 403e
00000220: 0f73 32bd 69cd f4b9 ef62 3cbd e939 db3b
00000230: 6aff 3e3c 7ad4 b43b d254 e73d 5843 04bd
00000240: 97d7 34bd 0a05 e8bd 78fa 643c 3c9d f83c
00000250: ae34 063e 1703 3e3e de96 d73c 15a0 313d
00000260: e06d bbbd 6ac3 373e 7ccb 12bd 4afd 283e
00000270: fbdf a2bb b5c3 c9bc 02d8 ecbd 9231 b23d
00000280: b6b9 163e c016 e9bd 7d40 813d 2241 b3bd
00000290: cbc9 8ebd 3588 c03c ff98 cd3d 2ff4 283d
000002a0: 018f 89bd 6f30 163e cc88 91bc efbe 0c3e
000002b0: 54c0 42be a32d 18be 1982 3b3d 6afd 0bbc
000002c0: 8511 22bc 7702 29be 9c5e 433d aaf1 b4bd
000002d0: e7d1 cdbd 6526 a5bd 85f7 c13d 08a9 053d
000002e0: d2c1 073e 92e4 0cbd d4b8 653c ebaf 22be
000002f0: 0c7c 253e 5122 843c 0478 c039 7483 a0bd
00000300: 4a47 a43d 9756 f9bd 1e4e 0f3e b5f2 873d
00000310: b956 51bd abcb 8f3c 4c92 1cbe d656 b83c
00000320: 1ae3 15be 3536 e2bd d52a 4abc 47f6 a03d
00000330: 74d5 5fbd e336 5d3d a9e8 11be 3e23 e43d
00000340: 0ce8 3ebe 8821 16be a298 97bd dce0 d8bd
00000350: 9243 77bb a1f9 7a3d 1628 303e e8bd 3a3c
00000360: 7f20 3fbc 80f2 41bb 5556 203e f443 5c3d
00000370: d55a ff3c 06cd c83d 7374 353d 8820 0abe
00000380: 0db2 b03d 5abb 12be 40a1 983a ca54 2bbe
00000390: 1d39 e5bd e8ed 21be c662 cf3d b23c 0bbe
000003a0: ef91 10be df8c 8dbb 2568 843d 3056 1dbe
000003b0: 088d 20be c428 17bd 827e 103e f6d4 9cbc
000003c0: f4a5 1c3e 36e9 2c3c 4641 2b3e 513f 0b3e
000003d0: 5c25 2fbd 0940 25be 55e6 eb3d d590 ab3d
000003e0: 657c 1bbe 0080 423d 9f0c 05bc 02bc 42bd
000003f0: 0c11 d63d e059 e3bd e660 3ebd 6e7d a3bd
-0.020646397 -0.14162938 0.10512245 -0.1526833 -0.065599784 0.06356311 -0.016227 0.10906695
0.122415304 -0.057667803 0.07498832 0.18578447 -0.06425255 -0.13711245 -0.12528098 -0.027990896
-0.036469266 -0.0966992 -0.14405711 -0.07605537 -0.13208061 -0.049553353 0.0014446882 0.20171271
0.16374981 0.113402344 0.10032607 -0.025744455 -0.095045336 0.06710916 0.07772101 0.039135814
0.1685044 -0.01427201 -0.12757447 -0.12549949 -0.0030086804 0.077322565 0.04248936 0.052560993
0.09258278 -0.11382445 -0.1299082 -0.024338644 -0.12973033 -0.13392934 -0.12374347 0.0053442945
-0.08283008 -0.03761073 -0.053895395 0.14529696 -0.017561428 0.04887725 0.07052262 0.076880336
-0.059687275 -0.1259122 0.1780155 -0.099010535 -0.105882846 -0.103695594 0.1382959 -0.1772873
-0.027530733 -0.17527077 -0.04407194 0.08431163 -0.012857976 0.010074795 -0.14311735 0.053579
0.15634593 0.035901703 -0.106755234 -0.14421381 -0.02754622 0.035649415 0.105130695 0.12150465
0.06944807 -0.022030346 -0.059927594 -0.03336325 -0.026507283 0.09098025 0.14721635 -0.16247632
-0.014626407 0.07482435 0.16635719 0.04781198 0.02125162 0.17923905 0.053562313 0.16088632
-0.16921191 0.0062937704 0.09272399 -0.140927 -0.07319095 -0.107775055 0.19019099 0.11734944
-0.058300313 0.16893642 0.12812889 0.018517373 -0.13631259 -0.07027966 -0.021585833 -0.08787517
-0.0729923 -0.008415831 -0.1479364 0.18313332 -0.14518619 -0.009638298 -0.1539533 -0.12861311
0.08337722 0.079289004 -0.14589067 -0.048961747 0.18185149 -0.029429354 -0.10207095 -0.105181195
0.14905298 -0.03188633 -0.056911614 -0.07735468 0.0034644592 -0.082843795 -0.07043935 0.18808714
-0.04356676 -0.0004669235 -0.045992788 0.006690253 0.011657575 0.0055184932 0.11295475 -0.032290787
-0.044150915 -0.11329086 0.013975732 0.030348413 0.13106033 0.18555866 0.026317056 0.043365557
-0.09151816 0.17945638 -0.03583859 0.16502872 -0.004970548 -0.024629453 -0.11564638 0.08700861
0.1471928 -0.11381292 0.06311128 -0.087526575 -0.06972083 0.023502449 0.10038947 0.041248497
-0.06716729 0.14666913 -0.017765425 0.1374471 -0.1901868 -0.14861159 0.045778368 -0.008544305
-0.009891872 -0.16504847 0.04769765 -0.08835156 -0.10049801 -0.08063964 0.09471039 0.032631904
0.1325753 -0.03439767 0.014021117 -0.1588742 0.16160601 0.016129645 0.00036710512 -0.07837573
0.0802141 -0.12174719 0.13994643 0.066380896 -0.051108096 0.017553171 -0.15290183 0.022502344
-0.14637414 -0.110454954 -0.0123393135 0.07859474 -0.054646924 0.054007422 -0.14248909 0.111395344
-0.18643206 -0.14661229 -0.07402159 -0.105897635 -0.0037729484 0.06127322 0.17202792 0.011397816
-0.0116654625 -0.0029594004 0.15657933 0.053775743 0.031171242 0.0980473 0.044300508 -0.13488972
0.086277105 -0.14329281 0.0011644736 -0.16731563 -0.11192534 -0.1581341 0.101262614 -0.13597372
-0.14118169 -0.0043197717 0.064651765 -0.15364909 -0.15678799 -0.03690411 0.14110759 -0.019144516
0.15297681 0.010553649 0.16724119 0.13598372 -0.042760238 -0.16137709 0.11518542 0.08377234
-0.15184171 0.04748535 -0.008120685 -0.04754258 0.1045247 -0.11101127 -0.04647913 -0.07982908

prep.0.bias f4 [64]
00000000: 04c0 18bd 16b9 9d3c 4cb3 353d 973b 38bd
00000010: 95ab 10bd 8df5 84bd 7293 a23d 9522 cbbd
00000020: 0f2b 413d 1ff5 663d f73e 0b3e 8bdc aebd
00000030: d71f 0cbe 3490 c8bd 46b7 0d3d de5c aabd
00000040: ac07 3cbe 04c1 1cbe d929 12be 2c75 e4bd
00000050: 3ca0 51bd 4775 f4bd eaf4 373d 2be0 393d
00000060: b434 d73d c226 0b3d ad9a 2fbe ffd3 15be
00000070: e628 e4bb 576f 9bbc 0fb8 ed3d 9d18 883d
00000080: b6c5 6b3c 192a 133e 13d5 273d e93d fd3d
00000090: 9d9c a73d 7a83 20be 8c93 2fbe 799a a53d
000000a0: efc6 37be 30ee 103e 4ab1 46bc 33e4 493d
000000b0: ca33 87bd f260 2fbe c0dd 2f3e c29d 75bd
000000c0: ebd3 04be 4371 293e 2423 2abe c631 00be
000000d0: 6b1a 38be b924 c8bd bcf0 05bd 009d fc3d
000000e0: ffa1 a0bd f232 9e3d f22e 863c 4210 bcbd
000000f0: daf1 07be 1819 fbbd b24f 1c3d 4a80 b3bd
-0.037292495 0.019253295 0.044360444 -0.044978704 -0.035319883 -0.064921476 0.07938279 -0.099187054
0.047160204 0.05638611 0.13598238 -0.08538159 -0.13684021 -0.097931296 0.03459861 -0.08318494
-0.18362302 -0.15308005 -0.14273776 -0.11155161 -0.051178202 -0.119364314 0.044911303 0.0453798
0.10508099 0.03397251 -0.17148848 -0.14631651 -0.0069628833 -0.01897399 0.11607372 0.066453196
0.0143904 0.14371528 0.040974688 0.12365324 0.081841685 -0.15675154 -0.17146128 0.08086104
-0.17946981 0.14153361 -0.01212723 0.049289893 -0.06601675 -0.17126825 0.17174435 -0.059964903
-0.12971465 0.16547112 -0.16614968 -0.12518987 -0.17978828 -0.09772629 -0.032700285 0.12334633
-0.07843398 0.07724561 0.016379807 -0.091827884 -0.13275853 -0.12260646 0.03816194 -0.087647036

prep.1.weight f4 [64]
00000000: 5530 7f3f 460a 7f3f f0c6 7d3f b7e2 7f3f
00000010: 94b6 7f3f cc16 803f cd7d 7f3f 78e6 803f
00000020: a545 803f 4da8 7e3f e158 7d3f ce5a 803f
00000030: f731 803f add7 803f 22f2 7e3f 3e09 7e3f
00000040: 2b7a 813f 3d06 813f 140c 7e3f b9e8 7c3f
00000050: 22fa 803f d71d 813f ad4c 803f d840 803f
00000060: 6ca0 7f3f 76d5 803f 847d 803f 11f1 803f
00000070: 3c20 7f3f 496c 803f 71de 7e3f ffb5 813f
00000080: 42c1 7e3f 21c2 803f f252 7f3f dd30 803f
00000090: 499b 7f3f dc0a 803f 1c14 7f3f e6d9 7f3f
000000a0: 9f98 7e3f 52d4 7e3f c284 7e3f 26c0 7f3f
000000b0: 2d9f 803f 031a 813f b221 7e3f ec33 803f
000000c0: fd65 7d3f 85cf 7f3f 9065 7f3f cfb1 803f
000000d0: 10d7 7f3f 8bc2 7e3f ebf8 803f e222 7f3f
000000e0: d8ef 7e3f 6510 803f 455b 803f 2d11 7f3f
000000f0: 1f9d 803f eef8 7e3f 937a 7c3f 7eff 803f
0.99683124 0.9962505 0.9913168 0.99955314 0.9988797 1.0006957 0.9980133 1.0070333
1.0021254 0.99475557 0.98963743 1.0027711 1.0015248 1.0065819 0.99588215 0.9923285
1.0115408 1.0080029 0.9923718 0.98792607 1.0076334 1.0087231 1.00234 1.0019789
0.9985416 1.0065143 1.0038304 1.0073568 0.9965856 1.0033046 0.9955817 1.0133666
0.9951364 1.0059243 0.9973594 1.0014912 0.9984632 1.0003314 0.9964006 0.9994186
0.9945163 0.99542725 0.9942132 0.9990257 1.0048577 1.0086063 0.99270165 1.0015845
0.98983747 0.99926025 0.9976435 1.0054263 0.99937534 0.995156 1.0075964 0.996626
0.9958472 1.0005003 1.0027853 0.99635583 1.004795 0.99598587 0.98624533 1.007797

prep.1.bias f4 [64]
00000000: 56f5 86bc 7594 b33a 5fa8 cfbb 206b c3bb
00000010: 8771 603b a6f8 803c f09d 30bb 82da a03a
00000020: f48b 6ebb 6df8 f93b ad58 b7bb 065a 043c
00000030: 3adb cd3b b71b 84b9 cae6 7abb 30e0 16bc
00000040: 140e f1b9 c11d 173c 6d60 cbba 768c 2dbc
00000050: 5c5e 093c a8e7 6d3b ed80 ffbb 4b0a 8d3b
00000060: 275f 85bb 5d6f ce37 c4d0 00bb 7dbe 17bb
00000070: ea14 353c d1a4 ddba b76c d539 206e 3a3c
00000080: ac02 7d3b a54a f03b 9a7d 9ab9 567b 0a3b
00000090: f71d 5cba 6256 45bb 49e1 883b ad24 39bc
000000a0: 9c60 eb3b e8f6 343b 6ffc 25bb 59cf dabb
000000b0: 4659 893b 2a5d 7339 b74a b5bb 59f9 e23b
000000c0: 4a9e 4abc e8ed 8b3b 9ab0 7ebb ed3b 503c
000000d0: 59dc fcba 296b 1ebb 250b 13bb 240b 393c
000000e0: a31f e4bb 61a1 6cbb 2a0e 64bb 69ec 183c
000000f0: a106 11bc dd72 d1bb 74ac 17bc 4448 f13b
-0.016474407 0.001370086 -0.00633721 -0.005963698 0.0034247355 0.015743565 -0.0026949607 0.0012272152
-0.0036399337 0.0076284916 -0.005595288 0.008078104 0.0062822374 -0.0002519765 -0.0038284534 -0.009208724
-0.0004597759 0.0092234025 -0.0015516408 -0.0105925705 0.008384313 0.0036301408 -0.0077973516 0.0043042055
-0.004070181 2.4608971e-05 -0.0019655684 -0.0023154311 0.01105235 -0.0016910081 0.00040707525 0.011378795
0.003860633 0.007333117 -0.0002946675 0.0021130643 -0.0008396799 -0.0030111303 0.0041772467 -0.011300248
0.0071831476 0.0027612988 -0.0025327464 -0.00667755 0.0041915504 0.00023208992 -0.0055325883 0.006926697
-0.012366841 0.004270304 -0.0038862587 0.0127096 -0.0019291743 -0.002417276 -0.0022437063 0.01129416
-0.006961779 -0.0036106932 -0.0034798482 0.009333708 -0.008851678 -0.0063918666 -0.009257425 0.007363351

prep.1.running_mean f4 [64]
00000000: be11 c2bc 6c5a 263d 1b35 703d 4587 2cbd
00000010: b144 3ebd 1160 80bd bba9 eb3d 6d06 74bd
00000020: 5345 993d 3ff2 b83d 871f 2a3e 262a b4bd
00000030: f805 0ebe 8832 25bd 060d 493d e359 a4bd
00000040: 9395 3cbe 96ac 23be b878 2abe 6a6d bbbd
00000050: 12ce f5bc 1d12 3cbe 580b 993d b977 45bc
00000060: c2fd d63d 4f53 debc 02eb 30be 0221 11be
00000070: 81e9 483c ff94 bfbc 19a1 dd3d 2c8a 5f3d
00000080: bf74 563d 99fd f93d b819 3f3d 3770 0f3e
00000090: e9d2 363d cfec 26be 8191 28be da4b 093e
000000a0: adea 4cbe 7d3c 0e3e 7017 173d 06ce 723d
000000b0: 8301 57bd a7e1 23be b112 283e cd55 15be
000000c0: 4643 aabd 5f41 813d 5d34 54be 3761 ffbd
000000d0: a988 32be 9841 8fbd e18f c3bd 1480 0b3e
000000e0: 4082 d03b 32f1 f8bb 13af 0cbd 5eae b8bd
000000f0: 4c08 8fbd 4868 0dbe 9e42 c13d 1282 73bd
-0.0236901 0.040613577 0.058644395 -0.04212119 -0.046452228 -0.06268323 0.11506983 -0.05957644
0.07483926 0.0903058 0.16613589 -0.08797102 -0.13869464 -0.040331393 0.049084686 -0.08024957
-0.18416433 -0.15983805 -0.16647613 -0.091517285 -0.030005489 -0.18366285 0.07472867 -0.01205247
0.10497619 -0.027139334 -0.17277148 -0.14172748 0.012262703 -0.023386477 0.108217426 0.05457513
0.05235743 0.12206573 0.046655387 0.1400765 0.044634733 -0.16301273 -0.16461755 0.13407841
-0.20011397 0.13890262 0.036887586 0.05927851 -0.052491676 -0.16004048 0.1641338 -0.14583512
-0.08313613 0.06311297 -0.207231 -0.12469714 -0.17434944 -0.06994933 -0.09548927 0.13623077
0.0063631833 -0.007597112 -0.03434665 -0.09017633 -0.069840044 -0.13809311 0.09436534 -0.059450217

prep.1.running_var f4 [64]
00000000: 8238 953d b387 813d 0791 863d 2164 da3d
00000010: 0c90 6d3d dbff 4a3d f7f0 943d 9680 073e
00000020: b609 b63d 69b8 e83d 3e10 7c3d 42da 663d
00000030: ca3a 483d 6dfb 203e 0fb9 5e3d 8545 2b3d
00000040: 8770 5d3d d459 873d 42a2 853d 799c b43d
00000050: 8f37 f33d c3d9 e03d 1431 6a3d 9f68 a33d
00000060: be6a 3b3d 8aa0 ed3d e427 223d 4a45 323d
00000070: 7836 c33d fd79 453d 0527 4f3d a454 6d3d
00000080: f7af 9d3d 93ec 853d ac0a 613d dec8 9f3d
00000090: 89ed ab3d 2b45 4d3d 2ef3 3c3d 3036 963d
000000a0: 666a a33d 082c 903d 092b a63d ccc5 e33d
000000b0: fb04 923d 9883 353d ba41 ed3d d484 863e
000000c0: 0950 ba3d 39b5 4f3e a54a 933d b35d 923d
000000d0: 790f ac3d fc97 933d 6bb9 f13d 052b d33d
000000e0: 2dd4 fc3d bbd7 023e 0198 8f3d c5d9 8d3d
000000f0: 3bc4 d63d 52b2 293d 4058 213e 1c16 ec3d
0.07286169 0.06324711 0.065706305 0.10663629 0.057998702 0.04956041 0.07272523 0.13232645
0.08888571 0.113632984 0.061538927 0.05636049 0.04888419 0.15720911 0.054375704 0.041814346
0.054062393 0.0660893 0.06525089 0.08818907 0.11875831 0.10979035 0.05717571 0.07978939
0.045756094 0.11602886 0.039588824 0.04352311 0.095318735 0.04821204 0.05057432 0.057942048
0.07699578 0.065392636 0.054941818 0.07801984 0.083949156 0.05011479 0.04613035 0.07334554
0.07979278 0.07039648 0.08113677 0.11121711 0.07129856 0.04431495 0.11584802 0.26273215
0.09097297 0.20283975 0.07191972 0.07146778 0.08401389 0.07206723 0.11802944 0.1031094
0.12345157 0.12777607 0.07011414 0.06926302 0.10486647 0.041429825 0.15756321 0.115276545

layer1.conv1.weight f4 [64, 64, 7]
00000000: fc09 883c 373d 0bbd e018 9c3c 1d37 013b
00000010: ddd5 33bd 3ddd 9f3c e334 05bd acaa 0bbd
00000020: 3002 213d 21fa 773c 7051 27bb 7ee1 14bd
00000030: a3ed 3cbd 2d3f 3bbd cdb2 af3c e355 063d
00000040: 8cf6 c33c 1074 a5bc c1d8 983c 6b41 7a3c
00000050: 3977 513c 829b f53b b3b9 ed3c 6c86 393b
00000060: adf0 e23c c5f2 0fbd 7555 1fbd 6154 3b3c
00000070: 0dec 4d3d 97a8 1e3d 5493 123d 6285 013d
00000080: 4fe0 0c3d 8a82 46bb 1982 1d3d 010e 0fbc
00000090: 8f49 23bd d058 07bd 34e4 6cbb e128 a83c
000000a0: 4056 16bd 930e 493d 5038 4abd 4c24 f4bb
000000b0: f470 0cbd 638a b6bc c005 4c3c 51c0 eebc
000000c0: c459 03bd 128e 023d c8b6 02bd 267b 0cbc
000000d0: 38c2 743c cc78 6e3c 7dbd de3c df03 953c
000000e0: 5628 ff3c 04f7 39bd c10b 1a3c b84e 19bd
000000f0: c7c3 5c3c 0c80 4bbc 0757 be3c 171b a03c
00000100: dd65 f7bb fd00 863c 61fa 28bd 5490 dabb
00000110: 68ff d23c 4aea 0b3d c21c a33c 183e 6b3b
00000120: f402 d6bc 7eec 5dbd 27c0 d73c 6601 08bd
00000130: 0b92 36bc 7d25 6e3c ef3a f03c 7db6 09bd
00000140: 5529 04bc 08c9 ac38 65df fd3c b911 303d
00000150: 30ac e63c 8637 343c 9d62 df3c 408c 343d
00000160: 3147 503b c30f bfbc cf9f 7bbb 70e3 363c
00000170: c27d 26bd 1519 10bd 1969 023d 5dd9 e139
00000180: d048 163c 0289 473c 8d5a 46bd e068 e83c
00000190: a30a 45bc 2a61 6bbd 556a 1ebd dc78 bfbc
000001a0: c339 c0bc 7c78 abbb c945 7abc 711a 2e3c
000001b0: 35a9 ca3c f7d4 a33c 58de 8a3c 412d 273d
000001c0: 3777 283d e489 f83c b586 603d 0eef 713c
000001d0: e5b1 ee3c 627b fe3b 48b5 aa3c b86a dbbc
000001e0: a133 7c3c b73c 523d 8b0f 32bd 5fed 5c3c
000001f0: dd47 1b3d 7e4e 713c 1942 e83a 660a 223d
00000200: ea4b 23bd 8018 1b3d 77d7 b23c 9902 d4bb
00000210: acfa a33c f43a 84bc 6bea 2b3d fb20 303d
00000220: b6b1 803c df45 a6bc c675 6e3b 14cb 12bd
00000230: 4478 c63c f349 c93c 6c41 5a3c 0e0c c5bb
00000240: ea27 433d c4e3 463c 960c b83b 415e 283d
00000250: 0e9a 04bd 13cb fcbc 665a c4bc be3b 03bd
00000260: fdeb d0bc 6f4d 44bb bca7 ea3b e9a0 203d
00000270: c7f9 39bc 29f1 a23c 2c96 01bd 615f 0b3d
00000280: 282f 8d3c 6aa2 8dbb 710c 263d be4f 9e3c
00000290: 8886 423d a923 f13c 0d11 d83c eeac 213d
000002a0: fb02 243c 1204 283c 01c4 ba3b 4b86 40bd
000002b0: 52d6 453b 17cf bc3c c38a 6bbc 6caf f6ba
000002c0: 80d8 c6bc 6078 dabc 12b0 553c b5f1 193d
000002d0: ac88 063d c9b0 3f3d 0ccd 743c da0f 313d
000002e0: a355 0ebd 12db 563c d55e 823c 2efb 00bd
000002f0: 17ea 053d 5faa 2dbd 0466 443d 8039 edbc
00000300: 9523 283d 47f1 9d3a 7590 8a3c c390 bb3b
00000310: 65cb 18bb da0a 16bd f6de 793c 684c 27bd
00000320: a742 d5ba 4fbb ea3c 76e9 ff39 9910 22bc
00000330: 7a98 bb3c f696 f03a b813 503d a56d 603d
00000340: 94f8 7cbc ba20 2c3d 94a1 84bc 3440 60bc
00000350: 9110 bfbb 1f83 87bc bd59 5f3b e5aa 5fbc
00000360: f860 1bbd 79d9 7a3c 0179 84bc 6562 7b3c
00000370: d27f 95bc 3f9f 23bd b4fc 1dbd 0fd5 f03c
00000380: 80ee 0bbd bde9 c83b 612d ea3b 8b85 003d
00000390: 7665 afbc bb40 a43c 3552 f23c a11f 90bc
000003a0: 01e0 a63c 9d0b 003d 5202 0c3c dfc1 94bb
000003b0: 5a9c 5e3c 2571 04bc 6188 ff3b 8cb9 00bd
000003c0: c867 cfbc 12fd d5bc d6b3 313d 4dcc c1bc
000003d0: 54ed da3c 9140 62bc a07e fb3c 9702 843c
000003e0: 8e8b 113d eaec d7bc 8b14 d33c 127b c0bc
000003f0: 2cf3 11bd bdb3 f83b 7425 a7ba 87f2 e7bc
0.016606323 -0.033993926 0.01905483 0.0019716688 -0.043905128 0.019514674 -0.03252114 -0.034098312
0.039308727 0.015135319 -0.0025530718 -0.03634786 -0.046125066 -0.045714546 0.021447564 0.03279675
0.023921274 -0.020196944 0.018658044 0.015274386 0.012784773 0.0074953446 0.029019212 0.0028308881
0.027702654 -0.035143632 -0.038899858 0.011433692 0.050273944 0.038735 0.035785034 0.031621344
0.034393605 -0.003029021 0.03845415 -0.008731366 -0.039865073 -0.033043683 -0.0036146762 0.020527305
-0.03670335 0.049086165 -0.04937011 -0.007450616 -0.034287408 -0.022282785 0.012452543 -0.029144438
-0.03206803 0.03187377 -0.031912595 -0.008574283 0.0149388835 0.014555167 0.027189964 0.018190322
0.031147163 -0.045401588 0.009402216 -0.037428588 0.013474411 -0.0124206655 0.023234857 0.019544167
-0.007549985 0.016357893 -0.041254405 -0.0066700373 0.025756553 0.034158982 0.019911174 0.0035895165
-0.026124455 -0.054180615 0.026336743 -0.03320446 -0.011143218 0.014535305 0.029324977 -0.0336213
-0.008066495 8.239044e-05 0.030990312 0.04298565 0.028158277 0.010999566 0.027268702 0.044079065
0.0031780715 -0.023322945 -0.0038394814 0.011162624 -0.040647276 -0.03518017 0.03183851 0.00043077293
0.009172633 0.012178661 -0.0484262 0.02837032 -0.012026462 -0.05746571 -0.038675625 -0.02337306
-0.023465043 -0.0052328687 -0.015275427 0.010626421 0.024738887 0.01999901 0.016951725 0.040814642
0.041129317 0.030339189 0.054815967 0.014766468 0.029137561 0.007766173 0.020838395 -0.026784286
0.015393169 0.051327433 -0.043471854 0.013484328 0.03791033 0.014728187 0.0017719894 0.039560698
-0.03986732 0.037865162 0.021831257 -0.006470036 0.02001699 -0.016141392 0.041971605 0.043000203
0.01570974 -0.020296989 0.0036386116 -0.0358382 0.024227269 0.024571395 0.013321262 -0.0060134
0.047645487 0.0121392645 0.0056167347 0.041105513 -0.03237348 -0.030858552 -0.023968887 -0.032039396
-0.025503153 -0.002995338 0.007161109 0.039215956 -0.011351055 0.019890385 -0.031637356 0.034026507
0.0172344 -0.00432234 0.04053921 0.019325133 0.04749158 0.02943595 0.026375318 0.03947156
0.010010476 0.010254877 0.005699635 -0.04700307 0.003018756 0.023047967 -0.014376345 -0.001882059
-0.024273157 -0.026668727 0.013042467 0.037584025 0.032845184 0.046799455 0.014941465 0.043228008
-0.03474964 0.013113754 0.01591436 -0.031489544 0.03269395 -0.042398807 0.047948852 -0.028958082
0.04104956 0.0012050056 0.016914586 0.005724044 -0.0023314592 -0.036631443 0.015250912 -0.04084435
-0.0016270474 0.028653769 0.00048811332 -0.0098916525 0.022899855 0.0018355537 0.050800055 0.054792065
-0.015440125 0.042023398 -0.016190328 -0.013687182 -0.0058308323 -0.016542016 0.0034080588 -0.013651584
-0.037934273 0.015310639 -0.01617098 0.015343283 -0.018249426 -0.03994679 -0.038571075 0.02939847
-0.034163 0.0061313794 0.007146523 0.031377356 -0.021410685 0.020050397 0.029580215 -0.017593207
0.020370485 0.031261075 0.008545475 -0.004539713 0.013587082 -0.008083616 0.00779824 -0.03142695
-0.025318041 -0.02612165 0.043384396 -0.023656989 0.026724495 -0.013809339 0.030700028 0.016114516
0.03553348 -0.026358087 0.025766632 -0.023496184 -0.035632297 0.007589786 -0.0012752251 -0.028313888

layer1.conv1.bias f4 [64]
00000000: 51e0 c43c 3b43 86bc 8282 13bd c4e1 2f3d
00000010: 1797 cd3c 2c88 e13c 1d71 a73b 3c70 903c
00000020: 05b1 51bc bd8b 1abd 4634 f2bc 5b0c 81bc
00000030: 47c1 e03c 12e2 843c 9eca adbc f2b4 00bd
00000040: bfaa 903a 5d20 87bc ffc3 36bc 5b8b a73b
00000050: fe8e f43c 822e abbc dd66 d2bc a063 15bd
00000060: 504b 01bc b018 86ba a269 02bd e09a 50bc
00000070: dd04 6d3c f9ff 33bd bf84 083d af54 5dbc
00000080: 13e2 863c 77e4 2ebd 147d cfbb c88b 36bd
00000090: 9ecd 1f3d d90b dc3c ea6e 08bc e1af e6bc
000000a0: 005a 333d 6681 a73c 928b 083b 6d33 563c
000000b0: ba06 ae3c 6410 afbc ab20 eabc d7e3 34bd
000000c0: 28b4 d73b 2cfd 8abc 85e8 6eb9 d6e9 16bc
000000d0: 57c1 603b 9d0a 013d effb 14bd 2319 b43c
000000e0: 410e ba3c 4ebf 463c 93a4 cf3c f63c 15bd
000000f0: 8ce6 40bd 8c18 2abc fe11 febc ca35 d03c
0.024032744 -0.01638948 -0.036013134 0.042939916 0.02509646 0.027530752 0.0051099197 0.017631643
-0.012798552 -0.03773092 -0.029565942 -0.015752962 0.027435912 0.01622108 -0.02121478 -0.031422563
0.0011037214 -0.016494924 -0.011155128 0.005113048 0.02985334 -0.0208962 -0.025683815 -0.036471963
-0.007891491 -0.0010230746 -0.03183902 -0.012732238 0.0144664915 -0.043945286 0.03332972 -0.01350896
0.016465222 -0.04269835 -0.006332049 -0.0445669 0.03901445 0.026861118 -0.008327225 -0.028160037
0.043787003 0.020447444 0.0020835144 0.013073784 0.021243442 -0.02137012 -0.02858003 -0.044162598
0.0065827556 -0.016966425 -0.00022784069 -0.009211024 0.0034294927 0.031504262 -0.036373075 0.021984642
0.022711875 0.0121305715 0.02534703 -0.03643509 -0.047094867 -0.010381829 -0.031014439 0.025416274

layer1.bn1.weight f4 [64]
00000000: 77f4 7f3f 8422 803f 757f 803f 5eb8 803f
00000010: 0a15 813f edf6 7e3f 1fa3 813f b32c 7f3f
00000020: 36bd 7d3f 984d 7c3f c7e6 813f 64e7 7d3f
00000030: 76ab 803f d6cd 7e3f 014c 7b3f e989 7f3f
00000040: 1dbf 7e3f abc4 7e3f 04cc 803f 1a55 803f
00000050: d04f 803f f927 7e3f eae5 7e3f 0a81 803f
00000060: 13e6 7e3f 65d0 803f 7c20 803f 32ed 803f
00000070: a831 803f 3f96 7d3f db41 803f 5272 7f3f
00000080: 2768 7f3f 1b17 813f b47e 7f3f f5be 7f3f
00000090: 1ef6 7f3f e5f2 7d3f c0a3 7f3f e312 803f
000000a0: c9a3 7e3f 7c08 803f 599b 7f3f 085c 7d3f
000000b0: 66ad 7f3f 6a30 7d3f b3f0 803f 09dd 7e3f
000000c0: c23b 813f 404a 7e3f aaaf 7d3f d59e 7f3f
000000d0: 2edb 7d3f 89dc 7d3f 1ba3 813f 11f9 7d3f
000000e0: 5ac4 813f fd75 7c3f 948f 813f aafa 7e3f
000000f0: 666f 803f 680b 803f c732 823f 97a6 7e3f
0.999824 1.0010533 1.0038897 1.0056264 1.0084546 0.9959553 1.0127906 0.9967758
0.9911684 0.985559 1.0148553 0.991812 1.0052326 0.9953283 0.9816285 0.9981981
0.99510366 0.9951884 1.0062261 1.0025971 1.0024357 0.99279743 0.9956957 1.003938
0.99569815 1.0063597 1.0009913 1.0072386 1.0015154 0.9905738 1.0020097 0.99783814
0.997683 1.0085176 0.9980271 0.9990075 0.9998492 0.9919875 0.9985924 1.0005764
0.99468666 1.0002589 0.99846417 0.98968554 0.9987396 0.98902 1.0073456 0.9955602
1.0096362 0.99332047 0.9909617 0.99851733 0.99162567 0.99164635 1.0127901 0.9920817
1.0138047 0.98617536 1.0121942 0.99601233 1.0033996 1.0003481 1.0171746 0.99472946

layer1.bn1.bias f4 [64]
00000000: 67e1 1fbb 84da b43a a8ff b23b 83fe d03b
00000010: f2d2 d93b ffd2 a6bb eb31 8d3c 71da 0c3c
00000020: f916 57bc 4419 23bc ed2c 8e3c a7b3 e43b
00000030: da35 57bc 06a5 84bb 61bc 613b a647 a0bb
00000040: aa02 73bc ef43 973b 27e8 e8ba 05ed bfbb
00000050: 7064 dc3b 53c7 293b c649 37bc 0c6a 903b
00000060: 7e09 09bc f162 843b 3db0 2bba 9a33 9dba
00000070: 8cf7 6d3a 1589 ddba 0fe4 aabb 5256 95bb
00000080: 5575 f33a da17 0c3c dff5 8f3b ed88 ebbb
00000090: 4768 a1ba 6d77 49bc da65 543a d8b7 713b
000000a0: 9a1e 35bc 6cbe cebb 7d82 233c b0b4 d5bb
000000b0: 5cbe 253c 9dc0 cdbb 15e3 a23c 7c8e 38bc
000000c0: 2325 24bb 1af2 8dbc 705c 41bc 7d13 10bc
000000d0: ab11 00bb 8378 97bb ac54 3e3c 319d dfbb
000000e0: 8289 513c c4e4 64bc e738 5e3c efbb 03b9
000000f0: 34b0 3cba 9124 0bbc abe9 833c b429 6bbc
-0.0024395825 0.0013798033 0.0054626055 0.0063779964 0.006647461 -0.0050910707 0.017235717 0.008597002
-0.013128036 -0.009954754 0.017355407 0.006979424 -0.013135398 -0.0040479926 0.0034444558 -0.0048913537
-0.014832178 0.0046162526 -0.0017769382 -0.0058571124 0.0067258403 0.002590616 -0.011187023 0.004407173
-0.0083640795 0.004040115 -0.0006549394 -0.0011993528 0.000907772 -0.0016901816 -0.005215175 -0.0045574093
0.0018574396 0.0085506085 0.004393324 -0.0071879537 -0.0012314402 -0.01229654 0.0008102335 0.003688326
-0.011054659 -0.006309321 0.009979841 -0.006521784 0.010116186 -0.006279065 0.019883672 -0.01126444
-0.002504655 -0.017327357 -0.011801824 -0.008793709 -0.001954178 -0.0046225204 0.011616867 -0.0068241586
0.012789132 -0.013970558 0.013563371 -0.00012563144 -0.0007197887 -0.008492605 0.016102633 -0.0143532045

layer1.bn1.running_mean f4 [64]
00000000: a12e 693e 2244 e63d 858b f4be 6203 903c
00000010: 347b 7dbe ea9f f93e 96e0 f5be 3708 8dbe
00000020: 3b3d 2e3d 2484 4cbe fa5a 00bf 877a 2bbf
00000030: c5c1 bc3d 7853 853d 5eee 663e 3043 01bf
00000040: b4a5 0b3f 6fbe 613e 22ac 1f3e 37c1 44bd
00000050: 0d13 9c3d 46b7 95be 40a3 fcbd bbd0 e73d
00000060: da51 b4bd f0d2 e7be e947 173e cd31 653d
00000070: 3ebf dc3c df35 883d be99 653d 0dc7 d4be
00000080: 8844 fcbe e8f3 9bbe c224 2a3e 521f ddbc
00000090: 5dc7 2c3d 32b7 3d3f 30ec d63d 2588 8d3e
000000a0: 447f 98bd 3e84 913e d4f6 59be 0338 8c3e
000000b0: 12a0 0bbf 44ac 773e a1e1 00bf 8ed2 1f3e
000000c0: fa2a b7bd 62fc 743e 439f 873e 35a7 093f
000000d0: e9d3 4fbe 9b3d 21be b218 f2be 1bca 983e
000000e0: b6b3 00bf 5d92 07be c0d2 2bbf a7d6 0bbf
000000f0: a838 053e 33df 8a3e fa11 08bf 1099 1b3f
0.22771694 0.11243464 -0.47762695 0.017579738 -0.2475403 0.48754817 -0.48022908 -0.2754533
0.042538863 -0.19972283 -0.5013882 -0.66983837 0.09216646 0.06510061 0.22551867 -0.50493145
0.5454972 0.22045301 0.15593007 -0.048035827 0.07620821 -0.2924139 -0.12335825 0.11319109
-0.088046744 -0.4527812 0.14773525 0.055955697 0.02694666 0.066509 0.056054823 -0.41558114
-0.49271035 -0.30459523 0.16615584 -0.026992474 0.042182315 0.7410766 0.10494268 0.27642933
-0.07446149 0.28421205 -0.21285564 0.27386484 -0.5454112 0.24186808 -0.5034428 0.15607664
-0.08943744 0.23924401 0.26488695 0.5377076 -0.20295681 -0.15746157 -0.47284466 0.29841694
-0.5027422 -0.13239427 -0.67118454 -0.5462441 0.13009894 0.27123412 -0.5315243 0.6078043

layer1.bn1.running_var f4 [64]
00000000: 7e9c d23e 9e9d 9b3e 42ea dc3e f8c8 953e
00000010: 1346 ab3e dab7 b63e fff7 d03e 6b41 083f
00000020: 3447 803e 407a 973e eb38 d03e 3f36 1c3f
00000030: 8d4d c43e 558c 003f c378 a23e 4f9e c93e
00000040: 8517 073f 809e fd3e 80a1 c43e fd66 973e
00000050: 1a6e 603e 7884 cf3e 90d6 553e 1ffb f53e
00000060: ef97 e83e 5869 d13e 0309 ae3e 9ba4 b83e
00000070: 5f83 833e 2bb6 a83e 0176 bb3e a2e5 343f
00000080: a28b 393f ea03 753e 98c0 b93e 9f38 153f
00000090: edb2 dd3e 9855 1e3f 9439 443f f859 de3e
000000a0: 2a23 813e 9669 8e3e c966 da3e e12f aa3e
000000b0: c2c3 503f 4998 ae3e 6d43 083f 19ad 613e
000000c0: d532 423e 6b3c 943e ca79 c03e 1ae6 dc3e
000000d0: 22aa d03e f2a9 f73e 8355 c33e 7100 653e
000000e0: 09a7 d63e f5e1 953e ccb8 393f e8c6 043f
000000f0: b832 df3e 7f40 953e ac95 e53e 5401 093f
0.4113502 0.3039369 0.43147475 0.2925489 0.334519 0.35687143 0.40814206 0.5322482
0.25054324 0.29585457 0.40668425 0.6102027 0.38340417 0.5021413 0.3173276 0.39378592
0.5277026 0.49534988 0.38404465 0.2957076 0.21917 0.40530753 0.2088263 0.48043153
0.45428416 0.40900683 0.3399125 0.36063084 0.25686166 0.32951483 0.36613467 0.7066289
0.7247869 0.23927274 0.3627975 0.5828952 0.43300572 0.61849356 0.7665036 0.43428016
0.2522214 0.2781493 0.42656544 0.33239654 0.815487 0.3410056 0.53227884 0.22038688
0.18964703 0.28952345 0.37592918 0.43144304 0.407548 0.48371845 0.38151178 0.2236345
0.41924313 0.29273954 0.725476 0.51866007 0.43593383 0.2915077 0.44840753 0.5351765

layer1.conv2.weight f4 [64, 64, 7]
00000000: 0d45 d03c 3a58 603c cb14 b23b 2174 a6bb
00000010: 8338 4e3d 5cd7 93bc 19c0 01bd da30 a7bc
00000020: db20 c3bb 786d 313d 56bd 02bb 55d8 333d
00000030: cfe6 0b3d bd77 49bc 8f31 37bd 3e93 d0bc
00000040: 7d5d b13b 296a 90bb 862d 573d 17c8 a3bb
00000050: feb9 efbc 26a9 aa3c 2ac3 5ebc 00b6 593d
00000060: 55ff 3f3d 1979 6f3d e538 6b3d a634 0abd
00000070: 7edd 22bd 13e8 aa3c b933 b73b dc3d 08bd
00000080: ba3c 3c3d 235f 243d 6970 38bd 44c3 173d
00000090: 7501 a73b 63ec 393b 2b5f 73bc c473 f3bc
000000a0: 0c47 19bd 0bfb 523c f7c2 6d3d 235a 283d
000000b0: f20b 903a c1fc acbc f7e6 843c 2fc4 223d
000000c0: e6ce 85bb 3dd2 cf3c 11b1 fcbc bbf5 2e3d
000000d0: 1b81 cfbb 95b1 fe3b 6973 3a3b 8a1c 4d3b
000000e0: 2709 523d abea c03c bf22 8fbc df3d e0bb
000000f0: e097 db3c 2273 103c 709d c1bc 03f8 143d
00000100: 291e 1c3d aba0 853c 8262 f63c 5580 40bc
00000110: 6519 0a3c cad0 9fbc f697 243d ccb7 29bc
00000120: e590 65bc 765f 5d3d 1665 ff3c a94c 4d3d
00000130: f39c 303d 144b 083c 8106 1cbd d28d 83bc
00000140: 2641 28bc d548 ffbc c363 9abc 06a4 4d3b
00000150: 9646 c6bc 7212 483d 0574 dd3c 1424 19bd
00000160: 78cb 253d b0c3 7dbc c503 14bd d03d a93c
00000170: 6c51 cd3c c637 04bd 62af 6d3b 67d0 2ebd
00000180: e299 47bc 6c86 ee3c 0e7d c5bc 1c8f a4bc
00000190: 82ea 4cbc a8aa a03c 9030 ed3c e5a1 01bd
000001a0: 1a2b 313d 0641 47bc 5b41 303d 2255 a6bc
000001b0: ab8e 043d b120 313c 47c7 373c 9161 f43c
000001c0: e9f2 203d 4202 82bc a2cf 34bc 7a54 92bc
000001d0: cb99 cb3c f1d2 be3c 31e0 65bb 3ed1 cb3c
000001e0: 66f4 ee3c 6ba2 2a3d ab16 493d 666a 643a
000001f0: 9767 f13c cf4e 2bbc 5d7a 753b 79d6 243d
00000200: bfaa df3c 7dfc 003c 21de 173d 62f9 683d
00000210: b9f4 713c 4ad5 38bb fe9d af3c 6ca2 2c3d
00000220: aaf9 08bd f144 d93c 4e2d 2c3d 16a5 8bbc
00000230: 0e5b c5bc ec37 00bd dfac f7bc 1c68 eabc
00000240: ddbc b63b 4640 b03c 6982 743c 60e9 0cbd
00000250: 1027 643d dbd0 34bb 12ec 87bc 53ee 2d3d
00000260: 766c 43bc 04ec 803c 6c7e 3e3c a8d4 193d
00000270: 925c 0abd 0408 07bc 7ea2 f33c db14 413d
00000280: ed2d 76bc 3708 a9bc 6cf2 a2ba 71c0 253d
00000290: b410 35bc c8c9 003d bca0 69bc 75a1 2ebd
000002a0: e1aa 4b3c db50 ba3c c748 5b3b 8bf2 54bd
000002b0: 35a6 943c 64a2 13bd 869d 903b 13a6 19bd
000002c0: 553f a53b ba9c cb3b 5175 0cbd 7c01 9e3a
000002d0: 6e6e ddbc 5512 203c 5b0e 25bd bd7a 1abc
000002e0: 5bbe 34bd 184f 31bd 0bfe f13c 249a a3bb
000002f0: 32ff 003c c4a5 0ebd 38f7 2dbd fabc 153d
00000300: a8d4 433d 2515 5f3d 5397 843b a462 42bc
00000310: 65f2 453d 9e37 a4bb a708 9abc c4f4 80bc
00000320: 35dd b63c cc19 653d 88a2 50bc 0955 26bc
00000330: 19db 6ebb 74cd 1dbd 642b c2bc 9e24 0dbd
00000340: e925 163c b952 1dbd 972c f7bc 118d 453d
00000350: e517 c9bc 957f f83b e081 d0bc 9c97 f63c
00000360: bea6 373c 0adc a53b f513 c23c 93fc 983c
00000370: a7e7 133d cbca 263c 957c 173d c060 e63c
00000380: 29c7 a83c 0615 8cbc a2f3 0abd e9e6 443d
00000390: ea44 4e3d 313b 173d 0db3 2f3d 4af2 00bd
000003a0: b2d0 97bc 7145 4aba 5494 e9bc b4e1 9aba
000003b0: f516 3ab7 f24e 473b 5328 de3c 65b8 513d
000003c0: 2185 3c3d 961f 6cbc 14d7 09bc da58 ec3c
000003d0: 5140 3d3d d4e0 cdbc 8e86 083d 40d7 9e3b
000003e0: 6466 74bc 830b 273d 490f 563d 3420 3ebc
000003f0: 8107 823c dde7 e33c 3cbd 483c c544 ed3c
0.025423551 0.01369291 0.0054346076 -0.0050797616 0.050346863 -0.018047027 -0.03167734 -0.020409036
-0.0059548444 0.04331729 -0.0019949279 0.043907482 0.034155663 -0.012296614 -0.044724997 -0.025460836
0.005412756 -0.0044071865 0.05253365 -0.004998218 -0.029263493 0.02083261 -0.013596335 0.053152084
0.046874363 0.058465097 0.057427306 -0.033741616 -0.039762013 0.020862615 0.0055908826 -0.03326212
0.04595635 0.040129792 -0.045029078 0.037051454 0.0050966092 0.0028369657 -0.014854233 -0.029718287
-0.03742127 0.012877236 0.05804726 0.041101586 0.0010989888 -0.021116616 0.016223414 0.039737877
-0.004083502 0.025368804 -0.03084615 0.042714816 -0.0063325292 0.0077726343 0.0028450137 0.0031297528
0.05127826 0.023549398 -0.017472623 -0.006843313 0.026805818 0.008816512 -0.023634642 0.036369335
0.0381147 0.016311964 0.030076269 -0.011749347 0.008428906 -0.019508738 0.040183984 -0.010358762
-0.014011596 0.054046117 0.031176131 0.050121937 0.04311843 0.008318681 -0.03809214 -0.016058836
-0.010269439 -0.031162659 -0.018846398 0.0031378283 -0.02420358 0.048845716 0.027032861 -0.037387922
0.040477246 -0.01548855 -0.036136407 0.020659357 0.025063239 -0.032279752 0.0036267866 -0.042679217
-0.012182685 0.029116832 -0.024107482 -0.020087771 -0.012507083 0.019612625 0.02895382 -0.031648535
0.043253995 -0.012161499 0.043031078 -0.020304266 0.03236262 0.010811017 0.011216945 0.02983168
0.039294157 -0.015870217 -0.011035832 -0.017862547 0.024853608 0.023293944 -0.0035076255 0.024880048
0.029169273 0.0416588 0.049093883 0.00087133644 0.02946834 -0.010455801 0.0037456967 0.0402436
0.027303098 0.007872698 0.037077073 0.056878455 0.014767819 -0.0028203302 0.021437641 0.042147085
-0.033441223 0.026522132 0.042035393 -0.017046493 -0.02409127 -0.03130333 -0.030233799 -0.028614096
0.0055767135 0.021515023 0.01492367 -0.03440225 0.055701315 -0.0027590308 -0.01659206 0.04246361
-0.011927715 0.015737541 0.011626821 0.03755632 -0.03377969 -0.008241657 0.029740568 0.04713903
-0.015025598 -0.0206338 -0.0012431866 0.04046673 -0.011051346 0.031442434 -0.0142595135 -0.042634446
0.012430877 0.022743633 0.0033460127 -0.05198912 0.01814566 -0.03604354 0.0044133095 -0.037511896
0.00504295 0.0062137516 -0.03429157 0.0012054886 -0.027030196 0.009769996 -0.040296894 -0.009428677
-0.04412685 -0.04328832 0.029540082 -0.00499274 0.007873343 -0.034826055 -0.042472094 0.036557175
0.047810227 0.054463524 0.0040463596 -0.011864338 0.04832687 -0.005011513 -0.018802954 -0.015741713
0.022322277 0.055932805 -0.012734063 -0.01015211 -0.003644651 -0.038526013 -0.02370233 -0.03445875
0.009164312 -0.03840897 -0.03017263 0.048230235 -0.024547527 0.0075835683 -0.025452554 0.03010159
0.011209188 0.005061631 0.023691157 0.018675124 0.036109593 0.010180186 0.036984045 0.028122306
0.02060278 -0.017099869 -0.033923753 0.048071776 0.05035869 0.036921684 0.042895366 -0.031481065
-0.01853213 -0.0007716036 -0.028513111 -0.0011816532 -1.1091809e-05 0.0030412045 0.027118837 0.051201243
0.0460254 -0.014411828 -0.008413095 0.028850961 0.046203915 -0.02513162 0.033331446 0.004847437
-0.01491699 0.040782463 0.05226067 -0.0116043575 0.015872719 0.027820522 0.012252148 0.028963456

layer1.conv2.bias f4 [64]
00000000: c79e 05bd 1a75 adb9 7574 91bc 7b6b 88bc
00000010: 3573 dbbc af44 ef3c 68ab 4b3c 0b08 043d
00000020: 320d 8abb 4381 893c a071 04bd f90d 06bd
00000030: 0b0f e33c 6e88 cabc 83b9 43bc 54e9 2f3d
00000040: 91f8 abbc 0544 21bd 3b9d 9cbc 035d 003c
00000050: 202c a2bc e757 1c3d 5608 993b e3d8 1dbd
00000060: 2495 b4bc ef11 dfbc acb0 2dbd a5c5 273c
00000070: 9dee 35bd 3e1e 3abd 6586 f53c 610b 883b
00000080: 2314 11bd 178f 42bd e62a 29bc f27a 96bc
00000090: 36ba 18bc d6d0 373d 1569 d0bc b5e2 47bc
000000a0: 6bf0 fbb9 0d98 893c 355b 3dbd 8ed9 963c
000000b0: 86f9 1a3d 4bbf d0bc d661 5abc 9c05 76bb
000000c0: 935e 0b3d 4329 4e3c 1398 00bd 66c1 cb3c
000000d0: 46ce ecbc 63c3 263d 5ab6 49ba 0465 3bbd
000000e0: d25f b43c ca7d 1b3d 4770 c43c 2874 f33c
000000f0: 93ed 2ebd 48e3 81bc 9e7b e539 d602 cebc
-0.032622125 -0.0003308438 -0.017755726 -0.016652813 -0.026788333 0.029207556 0.012431003 0.032234233
-0.004212999 0.01678527 -0.032334924 -0.03272817 0.027717134 -0.024723258 -0.011946085 0.04294713
-0.02099255 -0.03937151 -0.019117942 0.007834676 -0.019796431 0.038169768 0.004670183 -0.038536917
-0.022043772 -0.027230231 -0.042404816 0.010239993 -0.044417012 -0.045438997 0.02997131 0.004151747
-0.035419594 -0.047499742 -0.010325169 -0.018369172 -0.00932174 0.044876896 -0.025440732 -0.012200047
-0.00048053576 0.016796136 -0.04622956 0.018414285 0.03783562 -0.02548184 -0.01332899 -0.0037539965
0.03402574 0.01258308 -0.03139503 0.024872493 -0.028906953 0.04071368 -0.0007694714 -0.045750633
0.022018347 0.03796176 0.02397932 0.029718474 -0.042707037 -0.015855446 0.00043770386 -0.025147837

layer1.bn2.weight f4 [64]
00000000: 4bbd 803f 2f82 803f 3ff7 7b3f bb1d 7f3f
00000010: 0f19 803f bc4b 803f 7c0e 7d3f 7675 7e3f
00000020: d351 813f 07a6 7e3f 2167 7f3f 3ff6 803f
00000030: a523 803f 864f 803f a4b0 7f3f 359b 803f
00000040: 18a5 803f 6377 813f f448 813f d55b 803f
00000050: d99e 7f3f 450d 813f 53f6 7e3f 1013 7f3f
00000060: bd82 803f b694 7e3f c664 803f 8d49 7f3f
00000070: 6a52 803f f3ff 803f 4195 7f3f 3649 803f
00000080: 1f94 803f 57c7 7e3f 4117 813f edcf 813f
00000090: 47d9 7e3f ddd2 7e3f bf2c 7d3f 6ee0 7e3f
000000a0: 69a4 7d3f 839d 813f 803b 7f3f d4de 7d3f
000000b0: c105 803f bc29 7e3f 7192 813f 57a8 803f
000000c0: 5b05 803f 39dc 803f 9fcd 7f3f 58bf 7f3f
000000d0: 2379 7f3f 93da 803f bed2 7e3f 3610 7e3f
000000e0: 994c 803f f129 7e3f 6ccf 7f3f 7108 7d3f
000000f0: bd1b 7f3f c5ae 7f3f b9c7 813f aa60 803f
1.0057768 1.0039729 0.9842414 0.9965474 1.0007647 1.0023112 0.98850226 0.9939798
1.0103096 0.9947209 0.9976674 1.0075148 1.0010878 1.0024269 0.9987891 1.0047365
1.0050383 1.0114559 1.0100389 1.0028025 0.9985176 1.0082175 0.9959461 0.9963846
1.0039898 0.99445665 1.0030754 0.99721605 1.0025151 1.007811 0.9983712 1.0022342
1.0045203 0.9952292 1.0085222 1.0141579 0.9955029 0.995405 0.988964 0.995612
0.99078995 1.0126194 0.99700165 0.99168134 1.0001756 0.9928243 1.0122815 1.0051373
1.0001634 1.0067207 0.9992313 0.9990134 0.99794215 1.0066704 0.9954032 0.99243486
1.0023376 0.9928275 0.99925876 0.98841006 0.996517 0.9987605 1.0139076 1.00295

layer1.bn2.bias f4 [64]
00000000: 8fff 1ebc 1896 b1bb 2369 b4bc d4a6 00bc
00000010: 1e43 9a3b 25cb 073a d7ad 283b dfea 053c
00000020: 9ea6 143c 373c f7ba d764 85bb 4683 d43b
00000030: 15ad 2a3c 6dd4 fc3b 2d96 c6bb c975 01bc
00000040: 485e 143c 60eb 293c 0375 aeba d81b 0abc
00000050: 185c 803b e624 593c c537 a8b8 d3c3 78ba
00000060: defa 1a3a c1d2 f239 c5a3 83ba 8dd8 74bc
00000070: 6d0a 30bb 8688 b13b d331 e73b d9c7 983b
00000080: c79e e63a c823 873b 2beb 033c 6860 863c
00000090: aa5e 5c3b 6113 68bc 40a1 02bb 4358 14bc
000000a0: 2273 debb e917 073c 3507 ddba 0060 ec3a
000000b0: 43c2 913b 731e 413b 61ba 123c 7f1f 083c
000000c0: 5b67 acbb c75d 2839 54e9 07bb 924f 2a3a
000000d0: 3986 033c 7c30 50bb 2223 bfbb f7ef 5239
000000e0: 03b1 3b3c 7d72 31ba 0167 b23b 11e4 aebb
000000f0: 259e 99bb 6985 02bc ec71 7ebb f95b 193c
-0.009704485 -0.005419504 -0.02202279 -0.007852275 0.004707708 0.0005180112 0.0025738382 0.008173673
0.009072928 -0.001886255 -0.004070859 0.0064853756 0.010417243 0.007715753 -0.006060383 -0.007901617
0.0090556815 0.010371059 -0.0013310019 -0.00842949 0.0039172284 0.013253426 -8.021252e-05 -0.00094896293
0.0005912016 0.0004631486 -0.0010043314 -0.014944208 -0.0026861683 0.005417886 0.0070555 0.0046624956
0.0017594927 0.0041241385 0.008051674 0.016403392 0.003362576 -0.014164777 -0.0019932538 -0.009054246
-0.0067886272 0.008245447 -0.001686311 0.0018033981 0.0044482066 0.0029467612 0.008955569 0.0083082905
-0.0052613444 0.00016056663 -0.002073844 0.0006496842 0.008027607 -0.003176718 -0.0058330456 0.00020116555
0.011455777 -0.0006769074 0.005444408 -0.005337246 -0.0046880418 -0.007966378 -0.0038825227 0.009360307

layer1.bn2.running_mean f4 [64]
00000000: da22 353f 7d2c 07bf 18ae af3e ff41 d9be
00000010: ff22 0fbf aef6 a4be 027f 19be 24bc 21bf
00000020: e921 33bf 87ea ecbe f6ae 9ebe 861b b2be
00000030: 1f6b 30bf 28d6 02bf 76e2 eb3b 8f5b fb3d
00000040: ea10 423e 3336 8b3e 2999 9bbe 5dea ba3d
00000050: f20d a2be 8fb1 e83e fe85 d4bd 2043 73be
00000060: 9b12 543f 4a47 9e3d a318 073f 2a96 6a3d
00000070: 6b65 57be 2352 abbb eabc a8be adcb 09bf
00000080: b720 c7be 3c8c cfbe d5d7 76bc 672f a3be
00000090: a1d8 49be 5ad8 1d3e 064c b23d d63e 0dbe
000000a0: 1dde c5be 5553 013e 7416 b43d 0298 38bf
000000b0: 5ac0 28bf 88cc afbe 7373 2dbf 6868 0dbf
000000c0: f270 0dbf d313 4a3f 00c4 213f 7a25 803d
000000d0: 2098 a8be bee2 8c3d 77f4 1a3f 1025 473e
000000e0: 454e fbbe 54f8 573f 7abd 56be 773d 843e
000000f0: 9fc4 a83e d4b3 2bbe 1b65 81be 5fbe a5bd
0.70756304 -0.5280226 0.3431251 -0.42433164 -0.55912775 -0.32219452 -0.14989856 -0.63177705
-0.6997362 -0.4627268 -0.3099286 -0.34786624 -0.68913454 -0.51108027 0.007198627 0.12273323
0.18951765 0.27189788 -0.3039029 0.091267325 -0.31651264 0.45447966 -0.103771195 -0.23756075
0.8284089 0.07728441 0.5277197 0.057272114 -0.21034782 -0.0052282973 -0.3295663 -0.5382641
-0.38892147 -0.40536678 -0.015066107 -0.31872103 -0.19711544 0.15414563 0.087059066 -0.13793501
-0.3864602 0.12629445 0.08793345 -0.72106946 -0.65918505 -0.34335732 -0.67754287 -0.55237436
-0.55250466 0.789365 0.631897 0.06257148 -0.32928562 0.06879185 0.60529274 0.19447732
-0.49083152 0.84363294 -0.20970717 0.25828144 0.3296251 -0.16767818 -0.2527245 -0.08092951

layer1.bn2.running_var f4 [64]
00000000: 30fd 123f 60f7 3c3e 7ba4 603e 2749 153f
00000010: 378a 0e3f dec4 a63e 0417 4d3e 1841 9a3e
00000020: eccb 9d3e 5b5a fc3e 74b8 b13e d312 513f
00000030: b3db eb3e 45d5 db3e eedb bd3e ae33 693e
00000040: c42e 683e f08a d23e 5758 8d3e 7252 983e
00000050: 7c33 9a3e 9a60 a63e 7d55 ab3e 4ee2 8c3e
00000060: dacf df3e 0217 ec3e 3e04 e53e 4005 573e
00000070: c566 863e c3bd fa3e d0e9 933e 6247 c13e
00000080: 4394 313f c075 9f3e ed6d d73e 8a51 6e3f
00000090: 36c1 fa3e 40f6 503e 75c3 823e d067 513e
000000a0: 6ae4 8e3e 47fa ab3e ca14 d93e d9fb b13e
000000b0: 427e 8b3e 99b6 8a3e 9528 d73e 204a 9b3e
000000c0: cc24 653f 67af bf3e 7699 233f 698b a83e
000000d0: 2a76 093f ae11 bd3e 1656 a33e c9c2 183e
000000e0: 739a 993e 50b1 113f ee7d 7b3e 4f66 4a3e
000000f0: 2cef 953e 505f ae3e 81ab c13e d32c c43e
0.57417583 0.18453741 0.21937744 0.58314747 0.5567965 0.32572073 0.20028311 0.30127788
0.30819643 0.49287686 0.3471104 0.8166935 0.46066055 0.4293615 0.37081856 0.2277362
0.2267409 0.41121626 0.2760646 0.297504 0.30117404 0.32495576 0.3346366 0.27516407
0.43713266 0.46111304 0.447298 0.20998096 0.26250282 0.48972902 0.28889322 0.37749773
0.69366854 0.31144524 0.42076054 0.9309317 0.48975533 0.20406437 0.25539747 0.20449758
0.2790864 0.33589384 0.42398673 0.34762457 0.27244765 0.27092436 0.4202315 0.3032999
0.8950927 0.3743851 0.6390604 0.32918862 0.5369593 0.3692755 0.31901616 0.14918055
0.30000648 0.5691118 0.24559757 0.1976559 0.29284036 0.34057093 0.3782616 0.38315448

layer2.conv1.weight f4 [128, 64, 7]
00000000: 0dda 21bd 3330 053d a6c3 40bd b85c 3fbd
00000010: 4d1a 0f3d d27c 39bd 7d79 f43c e801 f63b
00000020: f63d 82bc 636a da38 ae4d 2a3d e318 823b
00000030: 7bb3 603c f620 c73c 78a2 21bd e655 dbbc
00000040: 34cf d73a 90db d93c 8ce4 49bc 450a c3bc
00000050: 407c e53b 1d8c 0e3d 1415 173d 1768 60bc
00000060: 3c37 8d3c ad93 28bd 3b19 853c 5744 79bc
00000070: 1a72 3cbc ab97 79bb dfb0 7b3c 721b a43c
00000080: fbcd 0e3d e8bb 5bbc bf9c 133d 9fd8 3ebd
00000090: 3e1f 9dbc 1f54 373c 7ff6 22bc b821 ea3c
000000a0: 30c7 243d 9157 91ba 003b e23c dd42 58bc
000000b0: aea2 04bd 2c65 e5bc 8739 083d 1d18 b8bc
000000c0: 5001 19bd ed8e 17bc 0429 9e3c 2ec3 273d
000000d0: 2dbb 95ba ac3b c03a d43f 763c d63f 983c
000000e0: 46aa f6bc 4cab a6bc fcc7 14bc d0b9 63bb
000000f0: d3ec 8b3b 851a b43c eb83 283b 5be4 1b3c
00000100: c0c7 d53b afa0 3cbd 555f 0a3d 5df6 05bd
00000110: ebd2 fdbc e839 20bd dac8 b0bc 80f0 30bd
00000120: 70f6 60bc 5cd5 163d 11b4 a13b 8e7a 83b9
00000130: dcf0 3dbc 7f76 0a3d 9083 32bd c249 d03b
00000140: 5ddb 71bc bc26 bc3c ca5b 9cbc 109b ccbc
00000150: 538f dbbc 0bfc 2c3d 3bc2 273d de11 4fbd
00000160: eb05 aabc b38e 76bb d0a0 783c 5afb 45bd
00000170: 030a b7bc 5b06 40bd c29a 6e3c 3eae 9e3c
00000180: a03b 2cbd b344 433d 659c b0bb 2875 e7bc
00000190: 4a44 11bd 7408 4cbd d542 213c 6db8 d7bc
000001a0: df7a 9a3b fa4a 363d 2597 d13b 4508 35bc
000001b0: e6b4 35bd a66a f33c fc4d 43bd 1fe6 27bd
000001c0: 1a55 17bd 45cc 90bc a218 2c3d 6e7e cc3c
000001d0: 1c78 813c cd2f b53c 8fd4 f6bb a580 1abd
000001e0: 172d 4ebc 8196 0abd 1ddc 20bc 0289 273d
000001f0: 1032 3b3d f964 0d3d 848d e73c d953 803c
00000200: f39a 21bd bf66 603c c1b7 0d3c 88e9 2bbc
00000210: fd66 c7bc 44c4 0ebc ca3d b5bc 5ec3 1cbd
00000220: e2ef ae3b 60b7 24bc 79df 88bc edcf 13bd
00000230: 1bb3 ebbc 6503 41bd 5a48 94bc 0acc 59bd
00000240: ef24 86bc 7074 e3bc cce1 8d3c 5769 803c
00000250: 500f f0bc e649 143d d377 eabc 5c84 f2bc
00000260: 15bf 19bd 0a82 063b 1f03 e5bc 7dc2 443d
00000270: 28dc 15bc e853 4a3c c69f a5bc c237 9abc
00000280: 8b34 02bd 200c 69bc be9a 9abc ef4b b0bb
00000290: 926c 313c 6212 2ebb 2ba5 4cbc bd79 01bd
000002a0: 909d 8cbc 2bf3 b9ba 44a7 ed3c 08e1 103d
000002b0: 796c 0e3d eb5e 1dbc 31a4 aebc af26 d03c
000002c0: 6598 433d 559e f63c feb1 c23c 3bcb 38bc
000002d0: 7e1f cebc e640 2d3d f0cc 1d3c 2ab7 45bd
000002e0: 92cf 1cbd 638d 313d 245e 203c 0e89 9fbc
000002f0: 1416 aa3c acfc 22bd 1ab9 503c 5848 c7bc
00000300: ee71 11bd 7016 823a 59ca 08bd 42dc 2f3c
00000310: 4d08 843b dfc5 27bd eaf8 92bc 3457 10bd
00000320: b9fb 8c3c b638 e13c 3b5c 2fbd 54b9 2dbd
00000330: 523b 5dbc 95f8 0ebd 0aff 063d 6cfb 8bbb
00000340: 70b2 11bd d6b9 963c 06f2 a23c 2d8c b1bc
00000350: 5d25 46bd 75e5 4fbd aad8 86bc a225 563b
00000360: d0cc 29bc 0824 df3c 3f2b 0cbd a225 943b
00000370: 95d4 56bd 65ff f0bc 59cb 1ebd cdb1 30bd
00000380: 7b09 263d b595 92bb 72c4 ccbc c6ed dcbc
00000390: d0d3 183d b3f8 9c3c 7c00 c03b cc21 09bc
000003a0: 9d4a de3c bbdc dabc 72b4 9a3c 6b93 b8bc
000003b0: 8bd3 11bc b4bc 233c f9bd 07bd 706f a7bc
000003c0: 059f 0dbd eb31 08bd ffeb 4e3d df7a 403d
000003d0: d784 b73c 82bf 08bd 2f1c 263d ac21 a1bb
000003e0: 68c8 4abc 2a02 203d 0bde 033d 7314 4d3d
000003f0: 2cd6 8aba c783 043d 1f53 9c3c 558a 2ebd
-0.03951459 0.03251667 -0.047061585 -0.046719283 0.03493719 -0.045285054 0.029843086 0.0075075515
-0.015898686 0.00010414866 0.041577987 0.003970252 0.0137146665 0.02430771 -0.039461583 -0.026774358
0.001646495 0.026593953 -0.012322556 -0.023808608 0.007003337 0.03480159 0.036885336 -0.013696692
0.017238252 -0.04115646 0.016247382 -0.015214047 -0.011501813 -0.0038084786 0.015361994 0.020032618
0.034864407 -0.0134115 0.036038157 -0.046593305 -0.019179936 0.01118949 -0.009946465 0.028580531
0.040229023 -0.0011088719 0.027616024 -0.013199535 -0.032381706 -0.028002344 0.033257987 -0.022472436
-0.037354767 -0.009250385 0.019306667 0.040957622 -0.001142358 0.0014666221 0.015029866 0.018585127
-0.03011049 -0.020345353 -0.009080883 -0.0034748204 0.004270175 0.021985302 0.0025713395 0.009514893
0.006524056 -0.046051677 0.033782322 -0.032705653 -0.030984363 -0.039117724 -0.021580148 -0.04319811
-0.01373063 0.03682457 0.0049347957 -0.00025077577 -0.01159307 0.033804413 -0.0435825 0.006356449
-0.014761773 0.022967689 -0.019086737 -0.024976283 -0.02680174 0.042232554 0.040956717 -0.05055415
-0.020754775 -0.0037621676 0.015175059 -0.04833541 -0.022343641 -0.04688106 0.014563264 0.019370195
-0.04204905 0.04767294 -0.0053897374 -0.028254107 -0.035465516 -0.04981275 0.009842594 -0.026333058
0.0047143544 0.044505097 0.0063961917 -0.011049335 -0.04436197 0.02971394 -0.047681794 -0.040990945
-0.036946394 -0.017675528 0.04201568 0.02496263 0.015804343 0.02211752 -0.007532663 -0.03772034
-0.012583992 -0.033834938 -0.009818104 0.040902145 0.04570204 0.034520123 0.028265722 0.015664982
-0.03945441 0.013696372 0.008649767 -0.01049269 -0.0243411 -0.008713786 -0.02212419 -0.038272254
0.005338655 -0.010053486 -0.016708123 -0.036086965 -0.028771928 -0.047122378 -0.018100906 -0.053173102
-0.016375033 -0.027765483 0.017319582 0.01567523 -0.029304177 0.036203288 -0.02862159 -0.02960413
-0.037535746 0.0020524287 -0.02795559 0.04803704 -0.009146728 0.012349106 -0.020217787 -0.018825416
-0.03178839 -0.014224082 -0.018872615 -0.0053801457 0.010829108 -0.002656125 -0.012490551 -0.03161024
-0.017164975 -0.001418685 0.029010423 0.035370857 0.034771416 -0.00960515 -0.021318527 0.02540907
0.047752757 0.030104795 0.023766514 -0.011278923 -0.025161501 0.04229822 0.00963138 -0.048270382
-0.038283892 0.043347728 0.00978807 -0.019474532 0.02076248 -0.039791748 0.012739444 -0.024326488
-0.035509042 0.00099249 -0.0333961 0.010733666 0.00402931 -0.04096019 -0.017940957 -0.035239413
0.017209874 0.027492862 -0.042812567 -0.04241307 -0.013502913 -0.034905035 0.032958068 -0.004271915
-0.035570562 0.01839916 0.019890796 -0.021673286 -0.048375476 -0.050755937 -0.016460735 0.003267624
-0.0103637725 0.02723886 -0.03422093 0.0045210877 -0.052448828 -0.029418657 -0.038768146 -0.043138314
0.040536385 -0.004473413 -0.024996016 -0.026968848 0.037311375 0.019161558 0.0058594327 -0.008369874
0.027135188 -0.02671658 0.018884871 -0.022531232 -0.008900533 0.009993721 -0.033140156 -0.02043888
-0.03457548 -0.03325073 0.050518032 0.04699218 0.02240221 -0.03338576 0.04055422 -0.004917344
-0.012376882 0.039064564 0.03219418 0.05006833 -0.0010592393 0.032352235 0.019082604 -0.042612392
